cnn-ae-model.pkl (torch, 46557 bytes, 19 tensors)

encoder.0.weight f4 [16, 1, 3, 3]
0	0xbc86fb44	-0.016477235
1	0xbcddde7d	-0.02708363
2	0xbdebe638	-0.1151852
3	0xbec7404f	-0.3891625
4	0x3da890aa	0.082307175
5	0x3e857b79	0.26070765
6	0xbe2afb1e	-0.16697356
7	0x3ea46b3d	0.32113066
8	0xbda9ff51	-0.08300651
9	0x3de59b0a	0.11211212
10	0x3e14584e	0.1448681
11	0x3d18375d	0.037162174
12	0x3e0e43ae	0.13893005
13	0xbf395b7d	-0.72405225
14	0x3db292bf	0.08719396
15	0x3df6ce27	0.12051039
16	0x3e3429f8	0.17594135
17	0x3e2973a1	0.16548015
18	0xbe11599f	-0.14194344
19	0xbe9d8726	-0.30767173
20	0xbe456736	-0.19277653
21	0x3dfd6fca	0.12374838
22	0xbd1afc9b	-0.03783856
23	0x3ed20389	0.41018322
24	0xbd9172e8	-0.07101995
25	0x3eadac16	0.33920354
26	0x3f06f25c	0.5271356
27	0xbec893c7	-0.39175245
28	0xbe3994b1	-0.18123128
29	0xbe6e5a58	-0.23276651
30	0xbec6cafe	-0.38826746
31	0x3d1fdb1d	0.039027322
32	0xbe3b9e42	-0.1832209
33	0xbea77f91	-0.32714513
34	0xbe9e2381	-0.30886462
35	0xbd8b25b6	-0.06794302
36	0xbe029d9c	-0.12755436
37	0x3ea8e664	0.32988274
38	0x3ded1d4c	0.115778536
39	0xbd4c500c	-0.049881026
40	0x3de0a78a	0.109694555
41	0x3e7f5467	0.2493454
42	0xbecbcb95	-0.39803758
43	0xbf1ca60d	-0.61190873
44	0xbe919092	-0.2843061
45	0x3d9379ef	0.07200991
46	0x3df64241	0.12024356
47	0xbdee2a93	-0.11629214
48	0xbe6739a9	-0.2258059
49	0x3f1ea0af	0.61963934
50	0x3f5992bd	0.8498953
51	0x3dafb3a3	0.08579185
52	0xbdb5bf99	-0.08874435
53	0xbd4a9b89	-0.049464736
54	0x3d888a82	0.06667043
55	0xbe359c5a	-0.17735425
56	0x3e510a3d	0.20414062
57	0xbe40f79c	-0.18844455
58	0xbf979759	-1.1843063
59	0x3d0da4d5	0.034581024
60	0x3e56ab90	0.20963883
61	0x3d94e198	0.07269591
62	0x3d74ab6e	0.0597338
63	0xbdd3c629	-0.103405304
64	0x3d639115	0.055558283
65	0xbd74e663	-0.059790026
66	0xbbf2296a	-0.007390191
67	0x3fd1fa6b	1.6404546
68	0xbdbcba55	-0.092152275
69	0x3c4c2011	0.012458817
70	0xbe361599	-0.17781676
71	0x3d9599bf	0.07304715
72	0x3c9e0b81	0.019292595
73	0x3f44c1df	0.76858324
74	0x3df58217	0.11987703
75	0x3f10af06	0.56517065
76	0x3ec556b3	0.3854271
77	0xbe70e328	-0.23524153
78	0xbda9a732	-0.08283843
79	0x3d3ba1f1	0.045808736
80	0xbdcfaf48	-0.10140854
81	0x3f04478f	0.5167169
82	0x3ee692ab	0.45033774
83	0xbe99e1f9	-0.30055216
84	0x3df4af87	0.11947542
85	0x3e350cc8	0.17680657
86	0xbe4c5ae1	-0.19956543
87	0xbe3d1090	-0.1846335
88	0x3dca773a	0.09886022
89	0xbd0844cb	-0.03326873
90	0x3bd14441	0.0063863103
91	0x3e7c76f4	0.24654752
92	0x3ea513d1	0.3224168
93	0x3e99dbad	0.30050412
94	0xbee9bd17	-0.45652077
95	0xbe7120ca	-0.23547664
96	0x3e9ed573	0.31022224
97	0xbd5df7b1	-0.054191295
98	0xbd2e210b	-0.04251198
99	0x3ce872fe	0.028375145
100	0x3e65fc69	0.22459568
101	0x3c4780f6	0.012176743
102	0xbdebfee4	-0.11523226
103	0xbec4ecfa	-0.3846205
104	0xbf160816	-0.5860609
105	0xbcd784ec	-0.0263085
106	0xbef432d8	-0.4769504
107	0xbd8b6ad8	-0.06807488
108	0xbd6e1f73	-0.05813546
109	0xbe9c5a46	-0.30537623
110	0xbd755425	-0.0598947
111	0x3f648048	0.8925824
112	0x3d8a7f66	0.067625806
113	0x3e2731aa	0.16327539
114	0x3b89cb5a	0.0042051496
115	0xbe7d9f29	-0.24767746
116	0xbe0748f1	-0.13211419
117	0x3d4b2f7c	0.04960583
118	0x3e722441	0.23646642
119	0x3e037e8d	0.12841244
120	0x3ea9c731	0.33159783
121	0x3dc72a3f	0.09724855
122	0xbe6331f7	-0.22187029
123	0x3e38743e	0.18013093
124	0xbe98be9b	-0.2983292
125	0xbebc0720	-0.36724186
126	0xbd9f5875	-0.07780544
127	0xbd1666a9	-0.036718998
128	0x3d9189e5	0.071063794
129	0x3d9bbf27	0.07604819
130	0xbf44a79f	-0.7681827
131	0x3e9aeac0	0.30257225
132	0xbe371a77	-0.1788119
133	0xbd4bf5fa	-0.04979513
134	0x3e46f06d	0.19427653
135	0x3d458c09	0.04822925
136	0xbde5ddb5	-0.11223928
137	0x3d1a9f70	0.037749708
138	0xbd843f86	-0.06457429
139	0x3f58402b	0.8447291
140	0xbdbcc731	-0.0921768
141	0xbc961652	-0.01832119
142	0x3f2bcfb2	0.6711379
143	0xbd8d273e	-0.068922505

encoder.0.bias f4 [16]
0	0xbf1d6352	-0.61479676
1	0xbe8496fb	-0.2589644
2	0xbdc3320b	-0.09531029
3	0xbd9517cf	-0.07279932
4	0xbc9999a1	-0.018750014
5	0x3e3defae	0.18548462
6	0xbf14c0ee	-0.5810689
7	0x3d939362	0.072058454
8	0x3e44dc14	0.19224578
9	0x3eb86113	0.36011562
10	0x3ed8cca3	0.42343625
11	0xbeb28ff1	-0.34875444
12	0x3f2a6568	0.66560984
13	0xbe745219	-0.23859443
14	0xbc8c0541	-0.017092349
15	0x3dc15e6b	0.09441837

encoder.2.weight f4 [16]
0	0x3f9ebddd	1.2401692
1	0x3ed75c45	0.42062584
2	0x3f728838	0.94739103
3	0x3fa40c9f	1.2816352
4	0x3f1c0545	0.6094554
5	0x3f7afa36	0.9803804
6	0x3fc58bb5	1.543326
7	0x3fbb05a7	1.46111
8	0x3f42f2d9	0.76151806
9	0x3f6d9f0a	0.928208
10	0x3f26587c	0.64978766
11	0x3f9b21d8	1.2119703
12	0x3f46406a	0.7744204
13	0x3f002bbe	0.50066745
14	0x3ef7da09	0.48408535
15	0x3fb53d05	1.4159247

encoder.2.bias f4 [16]
0	0x3f9206e1	1.1408349
1	0x3d89b193	0.06723323
2	0x3e08e6c0	0.13369274
3	0x3e40ab1c	0.18815273
4	0x3e15c417	0.14625584
5	0x3e3889d8	0.18021333
6	0x3efeff1a	0.49804002
7	0x3e36013f	0.17773913
8	0x3d003c64	0.031307593
9	0x3e89d6de	0.26921743
10	0x3e8400f3	0.25781974
11	0x3c99655e	0.018725093
12	0x3bd9aabd	0.006642668
13	0x3da117ef	0.07865893
14	0xbf87e138	-1.0615606
15	0x3e13e6ba	0.14443484

encoder.2.running_mean f4 [16]
0	0xbbcfec58	-0.006345313
1	0x3a9e294d	0.0012066752
2	0x3db7852f	0.0896095
3	0xbb5fb6fb	-0.0034136164
4	0x3c8545b0	0.016268581
5	0x3eb3d928	0.35126615
6	0xbbe5903e	-0.0070057204
7	0x3e7df0da	0.24798909
8	0x3ec573d8	0.38564944
9	0x3ee41da2	0.44553858
10	0x3ef4311e	0.47693723
11	0xbbae7f30	-0.0053252205
12	0x3f357531	0.70881945
13	0x3cbcbcf0	0.023039311
14	0x3c3b2a87	0.0114237135
15	0x3e83c286	0.25734347

encoder.2.running_var f4 [16]
0	0x35c5142d	1.4683516e-06
1	0x3a02f4ea	0.00049956015
2	0x3d60e43f	0.054905172
3	0x37e00f2b	2.6709944e-05
4	0x3bcbe4cf	0.0062223445
5	0x3e147b35	0.14500125
6	0x372c9d6e	1.0288653e-05
7	0x3e4236ba	0.18966189
8	0x3e547adf	0.20749997
9	0x3d879f52	0.06622185
10	0x3cca434a	0.024690289
11	0x378d96aa	1.6878668e-05
12	0x3d0e1a40	0.034693003
13	0x3c1702b3	0.009216952
14	0x3b5295a0	0.003213264
15	0x3e1313b8	0.14362991

encoder.4.weight f4 [32, 16, 3, 3]
0	0xbe7bd4a1	-0.2459283
1	0xbe9493cb	-0.29019007
2	0xbef244de	-0.47318166
3	0xbd72a4b9	-0.059239123
4	0xbd03383f	-0.032036062
5	0xbed8046b	-0.4219087
6	0xbe04d610	-0.12972283
7	0xbdb00762	-0.08595158
8	0xbe93f782	-0.2889977
9	0x3c75ab70	0.014994487
10	0x3d8b5987	0.06804185
11	0x3d9f0b13	0.07765784
12	0xbe378dbf	-0.17925166
13	0xbd9dac7e	-0.07698916
14	0xbda9c290	-0.08289063
15	0x3b9916ba	0.0046718987
16	0x3d7cb92b	0.061700027
17	0x3cab8792	0.020938668
18	0xbe19445f	-0.14967488
19	0xbe0c13dc	-0.13679451
20	0x3e380066	0.17968902
21	0xbeb7d7ba	-0.35906774
22	0xbdecd9a0	-0.11564946
23	0x3e6ec64d	0.23317833
24	0xbe874d01	-0.26425937
25	0x3de596f1	0.112104304
26	0x3e2f70b0	0.1713283
27	0xbcf4c8af	-0.02988085
28	0x3bdd1327	0.006746668
29	0x3c90bf1a	0.01766925
30	0x3e7ed547	0.24886046
31	0x3e9734d5	0.29532495
32	0xbb4d76a3	-0.003135123
33	0x3e379daa	0.17931238
34	0x3e54a035	0.20764239
35	0xbd26e8ac	-0.040749237
36	0xbe5bd487	-0.21467791
37	0xbd926893	-0.07148852
38	0xbe1575b5	-0.14595683
39	0xbe144e53	-0.14483003
40	0x3df1deef	0.11810099
41	0x3ea6d683	0.32585534
42	0xbf0d14b8	-0.5510974
43	0xbea5b54e	-0.32364887
44	0x3e1368c4	0.14395434
45	0xbe1ffe50	-0.15624356
46	0xbe413720	-0.18868685
47	0x3e42e5d6	0.19032988
48	0xbea260fc	-0.31714618
49	0xbe849637	-0.25895855
50	0x3dade222	0.08490397
51	0xbe8d3c3e	-0.27585024
52	0xbe1f0e57	-0.15532814
53	0x3dd45b92	0.10369028
54	0xbe26ac89	-0.16276754
55	0xbd40871f	-0.04700386
56	0xbe3099b8	-0.17246139
57	0x3d68b7e8	0.05681601
58	0x3e58d094	0.21173316
59	0xbe0ed27a	-0.13947478
60	0x3dd62f4f	0.10458242
61	0x3e71a73e	0.23598954
62	0xbd48e484	-0.049046054
63	0xbe16fb6a	-0.14744344
64	0xbe8c5622	-0.27409464
65	0x3dc2807b	0.09497162
66	0xbeb6c14a	-0.35694343
67	0xbebc9fb8	-0.36840606
68	0xbcca0003	-0.024658209
69	0xbdecd432	-0.115639105
70	0xbe807151	-0.25086454
71	0x3dc1d63f	0.09464692
72	0xbe21b5ae	-0.15791962
73	0xbdb23e4b	-0.08703288
74	0x3d325a51	0.043543164
75	0xbe856563	-0.26053914
76	0xbe6892c7	-0.22712241
77	0xbd4d9803	-0.050193798
78	0xbd6c140c	-0.057636306
79	0xbe7b86e1	-0.24563171
80	0x3decb59a	0.11558075
81	0xbe6552a5	-0.22394808
82	0xbecb071f	-0.3965387
83	0xbd0f489c	-0.034981355
84	0xbe87466c	-0.26420915
85	0xbf22c163	-0.63576335
86	0x3c612b24	0.013743196
87	0xbe0f4ffa	-0.13995352
88	0xbf331633	-0.6995575
89	0xbcc239cc	-0.0237092
90	0xbebc85bc	-0.3682078
91	0xbe5fd710	-0.21859384
92	0xbd87c279	-0.066288896
93	0xbe5af379	-0.2138194
94	0xbecf849d	-0.40530863
95	0xbdf8e5ba	-0.12153192
96	0xbe24ee8c	-0.16106623
97	0xbe697000	-0.22796631
98	0x3e67b6ab	0.22628276
99	0xbd80b710	-0.062849164
100	0x3dd3d58a	0.10343464
101	0x3d545de0	0.05184734
102	0x3e8cfd53	0.2753702
103	0x3ebb0fe4	0.3653556
104	0x3e1529ec	0.14566773
105	0x3e85841a	0.26077348
106	0x3ebe18af	0.37128207
107	0xbc5cefba	-0.01348489
108	0xbdc60395	-0.09668652
109	0xbd16d54b	-0.036824506
110	0x3bc0e567	0.005886722
111	0xbd638c5a	-0.05555377
112	0xbe3c0c60	-0.18364096
113	0x3da47b03	0.08031275
114	0x3cf0ca4f	0.029393343
115	0xbe52e321	-0.20594455
116	0x3d8be3c0	0.06830549
117	0x3b70062b	0.003662477
118	0xbd28729f	-0.041124936
119	0xbe837761	-0.25677016
120	0xbd48c165	-0.04901256
121	0xbe774184	-0.24146086
122	0xbb6f5994	-0.0036521899
123	0x3ebda4f8	0.37039924
124	0xbe31ab4c	-0.17350501
125	0xbdfd4f69	-0.12368662
126	0x3e1be29b	0.15223162
127	0x3d8fc271	0.07019509
128	0x3da519e7	0.08061581
129	0x3d6c8250	0.057741463
130	0xbd04891c	-0.03235732
131	0x3daeaccb	0.085290514
132	0xbda830ad	-0.08212409
133	0x3d903165	0.07040671
134	0x3d9729e5	0.073810376
135	0xbe4970c0	-0.19671917
136	0xbe4c7541	-0.19966604
137	0xbb76e360	-0.0037672147
138	0xbe8468a2	-0.25861079
139	0xbeecb93b	-0.4623507
140	0xbc2d4f5c	-0.010578003
141	0xbdda2a61	-0.106526144
142	0xbe317332	-0.173291
143	0x3e009dd1	0.12560202
144	0x3f2ab4c3	0.6668207
145	0xbddcc2a7	-0.107793145
146	0x3e0235c7	0.12715827
147	0x3d80b0a1	0.06283689
148	0xbcc11410	-0.023569137
149	0x3e6800b1	0.22656514
150	0x3e1f2d58	0.15544641
151	0x3de4c589	0.11170489
152	0x3c79375a	0.015210951
153	0xbdeae5de	-0.11469625
154	0xbdda968c	-0.10673246
155	0xbd13b659	-0.036062572
156	0xbe2834c0	-0.16426373
157	0xbde4bbde	-0.11168645
158	0xbd39be2c	-0.045347378
159	0xbe6b9997	-0.23007809
160	0xbdf5a395	-0.119940914
161	0x3e155164	0.1458183
162	0x3ea6f31d	0.32607356
163	0x3e39675f	0.18105839
164	0x3d15b60f	0.036550578
165	0xbddd1944	-0.10795835
166	0x3cf1ce7c	0.029517405
167	0xbc4c3a18	-0.0124650225
168	0x3d9184f4	0.07105437
169	0xbd243d15	-0.040097315
170	0xbcc08c5a	-0.023504425
171	0xbf4da671	-0.80332094
172	0xbc9499ca	-0.018139739
173	0x3d4a89ba	0.049447753
174	0xbe7cf33d	-0.24702163
175	0xbcc0b18f	-0.023522167
176	0x3df4683f	0.11933946
177	0x3de6ca97	0.1126911
178	0x3d6acc69	0.057323847
179	0x3ca81e33	0.020522213
180	0x3db21b77	0.08696645
181	0xbd8f2daa	-0.069911316
182	0x39afb0a8	0.0003351022
183	0xbe523e06	-0.20531473
184	0xbdb2711f	-0.087129824
185	0xbdada334	-0.08478394
186	0x3d65051b	0.055913072
187	0x3ddb7bba	0.10716958
188	0xbd1f9b38	-0.038966388
189	0x3f8d4696	1.1037166
190	0x3c5d0743	0.013490501
191	0xbb11a8e7	-0.0022225918
192	0x3e360f96	0.17779383
193	0x3e4bcc19	0.19902076
194	0xbd8ff162	-0.07028462
195	0x3d6dbe75	0.058042962
196	0x3d4141a1	0.04718173
197	0xbb3d9beb	-0.0028932046
198	0x3dc4ba41	0.096058376
199	0xbdf820b6	-0.12115614
200	0x3de994c9	0.11405332
201	0xbe8275b7	-0.25480434
202	0xbe48868d	-0.19582577
203	0x3d3cf17f	0.046128746
204	0xbdee4025	-0.11633328
205	0xbc18b16e	-0.009319646
206	0xbcf7eef5	-0.03026531
207	0x3f9beb28	1.2181139
208	0xbd80b6c3	-0.06284859
209	0xbcc0287e	-0.023456808
210	0x3e568417	0.20948826
211	0xbcfb7105	-0.03069354
212	0xbdf38990	-0.11891472
213	0x3d05740d	0.032581378
214	0x3bce24f1	0.006291025
215	0xbd9eef08	-0.07760435
216	0x3ee306c4	0.443411
217	0x3e37cda8	0.17949545
218	0x3c96cfdf	0.018409668
219	0x3e3fc922	0.1872907
220	0x3d60e76e	0.05490821
221	0xbbb1e732	-0.005429172
222	0x3d5a9ee0	0.05337417
223	0x3e80b0bc	0.25134838
224	0x3d8dc2e4	0.06921938
225	0x3de8617a	0.11346717
226	0xbdfb9c91	-0.12285722
227	0x3d0b9fe3	0.034088027
228	0xbe8bbae8	-0.27291036
229	0x3db039b5	0.08604757
230	0xbd8a7c9c	-0.067620486
231	0xbd26d03c	-0.04072593
232	0x3c7c868b	0.015412937
233	0x3c069259	0.008213603
234	0xbe90615d	-0.28199282
235	0x3d8f36c6	0.06992869
236	0x3ce96aa8	0.02849324
237	0xbd66a3cc	-0.056308553
238	0xbdca96e3	-0.098920606
239	0x3dcc7a66	0.09984283
240	0xbc399f39	-0.011329466
241	0x3dfa189e	0.122117266
242	0x3cb6d697	0.022319121
243	0xbf01d17d	-0.5071028
244	0xbe298dee	-0.16558048
245	0xbdc713f9	-0.09720606
246	0xbeb2bc2d	-0.34909192
247	0x3e03a4e8	0.12855875
248	0xbe087008	-0.13323987
249	0xbe46a9c7	-0.19400702
250	0xbdf55c4f	-0.11980497
251	0xbdc1620b	-0.09442528
252	0x3ea64b2f	0.32479236
253	0x3e230e40	0.15923405
254	0x3ceeaf89	0.029136436
255	0xbd97afee	-0.07406603

encoder.4.bias f4 [32]
0	0xbdf73d40	-0.120722294
1	0x3f99ff43	1.2031025
2	0xbd9ebc4b	-0.07750758
3	0x3f027e66	0.5097412
4	0x3efa1986	0.48847598
5	0x3f3c99ed	0.7367237
6	0x3e47cb7a	0.19511214
7	0xbc7c8710	-0.015413061
8	0x3f49d82e	0.7884549
9	0x3e3d329e	0.1847634
10	0x3ecb002a	0.39648563
11	0x3f068e2c	0.5256069
12	0x3f3d76e9	0.7400957
13	0x3e163696	0.1466926
14	0x3eb20548	0.34769654
15	0x3e49e37e	0.19715688
16	0xbde1850d	-0.110117055
17	0x3e86d293	0.2633253
18	0x3e8e29f4	0.27766383
19	0x3e2eaaeb	0.17057388
20	0x3d5d18e9	0.053978834
21	0x3f3b5369	0.7317415
22	0x3e8a569a	0.27019197
23	0xbe78bea0	-0.24291468
24	0x3e684b84	0.22685057
25	0x3f318e33	0.69357604
26	0x3f12bdf2	0.57321084
27	0x3e4c420d	0.19947071
28	0x3edd0ec7	0.43175337
29	0xbcb3b866	-0.021938514
30	0x3ee2b90c	0.44281805
31	0x3ef42533	0.4768463

encoder.6.weight f4 [32]
0	0x3f84b446	1.0367515
1	0x3f669b23	0.9008047
2	0x3f32d289	0.698525
3	0x3fa75869	1.3073856
4	0x3f1d16a5	0.6136268
5	0x3f842992	1.0325186
6	0x3f8e5f3f	1.1122817
7	0x3f91f57f	1.1403044
8	0x3f670b01	0.90251166
9	0x3f8b12b6	1.0865085
10	0x3f30b5a4	0.6902716
11	0x3f45ce39	0.77267796
12	0x3f1eed65	0.62080985
13	0x3f375499	0.7161346
14	0x3f6f791e	0.93544185
15	0x3f42b610	0.76059055
16	0x3f8170ad	1.0112511
17	0x3effd296	0.49965352
18	0x3f452ee3	0.7702467
19	0x3f32f33f	0.69902414
20	0x3f4cb3ba	0.7996174
21	0x3f575738	0.8411746
22	0x3f3f96f7	0.7483973
23	0x3f95cc16	1.1702907
24	0x3f477037	0.779056
25	0x3f182bf3	0.5944206
26	0x3f7890ca	0.9709593
27	0x3f529575	0.82259303
28	0x3f94482c	1.1584525
29	0x3f5dda11	0.8666087
30	0x3f811e09	1.0087291
31	0x3f5be355	0.85893756

encoder.6.bias f4 [32]
0	0x3f1ee70e	0.6207131
1	0xbd53b4d6	-0.05168613
2	0xbe9c1ba7	-0.30489847
3	0xbe69169d	-0.22762533
4	0x3ea7d14a	0.32776862
5	0xbd2d1022	-0.042251714
6	0x3f3e05b6	0.74227464
7	0x40193b00	2.394226
8	0x3ed17585	0.40909973
9	0x3f8cbc8d	1.0995041
10	0x3eaa1ef0	0.33226728
11	0xbe9f2d99	-0.31089476
12	0xbef9131a	-0.48647386
13	0x3e9e875f	0.30962655
14	0xbe3d7e8b	-0.18505304
15	0xbe932db1	-0.28745797
16	0x3fc95512	1.5729086
17	0x3f891e5a	1.0712388
18	0x3f0160d1	0.50538355
19	0xbee93e6e	-0.45555443
20	0xbd232919	-0.039834116
21	0xbf1c0d88	-0.6095815
22	0xbf96b5e8	-1.1774263
23	0x3f78ae7c	0.9714124
24	0xbd01ce88	-0.031691104
25	0xbf0af07f	-0.5427322
26	0xbee6859a	-0.45023805
27	0x3e803598	0.2504089
28	0xbd653394	-0.05595739
29	0x3fa7484c	1.3068938
30	0xbfb16138	-1.3857794
31	0xbf123529	-0.57112366

encoder.6.running_mean f4 [32]
0	0x3ee0f096	0.43933553
1	0x40992d2b	4.7867637
2	0x4098126c	4.752249
3	0x4030d09b	2.7627323
4	0x40c280a9	6.0782056
5	0x402cf753	2.7025955
6	0x4059fa50	3.4059029
7	0x3e2e100d	0.1699831
8	0x405f11e4	3.485467
9	0x40637bbf	3.5544279
10	0x40a105fc	5.0319805
11	0x405e305a	3.4717011
12	0x404158bf	3.0210416
13	0x3fb1a572	1.3878615
14	0x404a0bde	3.1569743
15	0x403e4520	2.972969
16	0x404e8660	3.2269516
17	0x40345ea5	2.8182766
18	0x3fe39f3c	1.778297
19	0x406465e8	3.5687199
20	0x4045c470	3.0901146
21	0x4060575e	3.5053325
22	0x3fe233db	1.7672075
23	0x3f5963c9	0.84917885
24	0x3fbdd36f	1.483015
25	0x403305c2	2.7972264
26	0x40579714	3.368596
27	0x3f83629a	1.0264466
28	0x40834938	4.102688
29	0x400790dc	2.1182165
30	0x409b1dbb	4.847379
31	0x400018c9	2.0015128

encoder.6.running_var f4 [32]
0	0x3f7102ec	0.94145083
1	0x42821fbb	65.06197
2	0x40f5c0fa	7.6798067
3	0x41636edb	14.214564
4	0x413678e2	11.404512
5	0x41146b1e	9.276152
6	0x410685b1	8.4076395
7	0x3ee03554	0.43790686
8	0x422617bd	41.523182
9	0x411dea49	9.869699
10	0x40dc954b	6.8932242
11	0x4242f8f6	48.743126
12	0x4174b580	15.294312
13	0x4101be6d	8.108991
14	0x409c15d6	4.8776655
15	0x407ecedb	3.9813755
16	0x40f5b0a3	7.677812
17	0x40d511ca	6.6584215
18	0x403c03dd	2.9377358
19	0x40919e3b	4.5505652
20	0x40d12b10	6.5365067
21	0x4140ba72	12.045519
22	0x41759e7f	15.351195
23	0x3fd67dc3	1.675713
24	0x41209a88	10.037727
25	0x40cc929c	6.3928967
26	0x4214da2a	37.21305
27	0x40b308d2	5.5948267
28	0x41b404f5	22.50242
29	0x408a205c	4.31645
30	0x417aa320	15.664825
31	0x41834905	16.410654

decoder.0.weight f4 [32, 16, 3, 3]
0	0x3d333dad	0.04375999
1	0x3e2f28f1	0.17105462
2	0x3db855b1	0.09000719
3	0x3e3e654b	0.18593328
4	0x3f1596b4	0.5843308
5	0xbcdfca3c	-0.027318113
6	0x3de031bc	0.10946986
7	0x3e11e78e	0.14248487
8	0x3ca92709	0.020648496
9	0x3d3adda7	0.04562154
10	0xbcfad881	-0.030620815
11	0x3d78ff23	0.060790192
12	0x3db29758	0.08720273
13	0x3e60f929	0.21970047
14	0x3c8db377	0.01729749
15	0x3e58a538	0.21156776
16	0x3e522869	0.20523228
17	0x3d37d9b6	0.04488536
18	0xb92a3d04	-0.00016235193
19	0x3e4accb6	0.19804654
20	0x3dbb945f	0.09159159
21	0x3a21f0af	0.0006177527
22	0x3ea6d5fc	0.32585132
23	0x3d7d23cc	0.061801717
24	0x3d6a69e8	0.057229906
25	0x3d204443	0.0391276
26	0x3e117869	0.14206089
27	0xbd36a45a	-0.04459033
28	0x3bd6f1a1	0.006559566
29	0xbe1bdb62	-0.15220407
30	0xbc85fff6	-0.016357403
31	0x3f0c4adf	0.54801744
32	0x3d1252c7	0.035723474
33	0x3d9f72e3	0.07785585
34	0x3e95d91e	0.2926721
35	0xbda0a3b9	-0.078437276
36	0xbd141c29	-0.036159668
37	0x3e3f632f	0.1869018
38	0x3e3db4a4	0.1852594
39	0x3e838b7e	0.25692362
40	0x3eb0de77	0.34544727
41	0x3e8e319f	0.27772233
42	0xbd81c0c4	-0.06335595
43	0x3e8af394	0.2713896
44	0x3d3cbd75	0.046079118
45	0xbc7575f8	-0.014981739
46	0x3dc5c694	0.096570164
47	0x3c3fe089	0.011711248
48	0x3e19fcd9	0.1503786
49	0xbdff9a14	-0.1248056
50	0xbdbd4bfe	-0.0924301
51	0x3d6c2e56	0.057661377
52	0x3e512274	0.20423299
53	0xbd2a5d7c	-0.04159306
54	0xbd501075	-0.050796945
55	0x3d9aa83c	0.075516194
56	0x3c2634a8	0.01014439
57	0xbe1a9734	-0.15096742
58	0x3edc2551	0.4299722
59	0x3da0cd5a	0.07851668
60	0x3d46634d	0.048434544
61	0x3da9c018	0.08288592
62	0x3c8df376	0.017328005
63	0xbe32f1a2	-0.17474988
64	0x3e76def5	0.24108489
65	0x3ea5add9	0.32359198
66	0xbe80dc68	-0.25168157
67	0x3df588d9	0.11988992
68	0x3ec27b48	0.3798468
69	0xbd041bc0	-0.032253027
70	0x3e47ca2b	0.19510715
71	0x3e8ab58a	0.27091628
72	0x3d87cea0	0.066312075
73	0x3e46db5b	0.19419615
74	0x3da95eed	0.08270059
75	0x3cbe9dd5	0.02326862
76	0x3bc28572	0.005936318
77	0x3dc1ae8e	0.09457122
78	0x3d2ed819	0.042686556
79	0x3e9b8366	0.30373687
80	0x3cf542c7	0.029939068
81	0x3be25d89	0.006908123
82	0x3e0f9652	0.14022186
83	0x3d3a6a09	0.04551128
84	0x3e34827a	0.17627898
85	0xbe576f09	-0.2103845
86	0x3df6046f	0.120125644
87	0x3c4816aa	0.012212435
88	0x3e49907a	0.1968402
89	0x3e00454f	0.12526439
90	0xbe8139fd	-0.25239554
91	0x3e203c38	0.15647972
92	0x3e0874c7	0.13325797
93	0x3da7fd84	0.08202651
94	0x3eb02827	0.34405634
95	0x3e1efc9b	0.15526049
96	0x3b78f010	0.0037984885
97	0x3db292a1	0.087193735
98	0x3d5e4ca0	0.054272294
99	0x3d6eadc8	0.0582712
100	0x3e55859c	0.20851749
101	0x3deea19b	0.116519175
102	0x3ba5e3e0	0.005062565
103	0x3df8d683	0.1215029
104	0x3e24f24c	0.16108054
105	0x3ca2c5ca	0.019869704
106	0xbdbe3dcb	-0.0928913
107	0x3dadaa3c	0.08479735
108	0xbd8ac3e3	-0.06775644
109	0x3e522736	0.2052277
110	0xbc3cf70b	-0.011533509
111	0x3d129f1e	0.035796277
112	0x3eb7d8a5	0.35907474
113	0x3e115839	0.1419381
114	0xbe117e10	-0.14208245
115	0x3e71c8ae	0.2361171
116	0x3e042471	0.12904526
117	0xbd8bd064	-0.06826857
118	0x3eb20906	0.3477251
119	0x3dae31f4	0.085056216
120	0xbd71f765	-0.059073824
121	0x3e91ec5c	0.2850064
122	0x3dbf71d6	0.09347884
123	0xbd509878	-0.050926656
124	0x3eb5e74b	0.35528025
125	0x3b281d31	0.0025652165
126	0xbe521da3	-0.20519118
127	0x3e882958	0.26594043
128	0x3eb64699	0.35600737
129	0xbe006fb4	-0.12542611
130	0x3dad238d	0.084540464
131	0x3e9c60a6	0.30542487
132	0xbcd68b85	-0.026189575
133	0x3e825530	0.25455618
134	0x3e71a789	0.23599066
135	0xbe58f230	-0.21186137
136	0x3eb84e56	0.35997266
137	0x3eb3deb1	0.35130838
138	0xbe892b67	-0.26790926
139	0x3e3ad8e7	0.18246804
140	0x3e9323bf	0.2873821
141	0xbd83d343	-0.06436779
142	0x3ec5317c	0.38514316
143	0x3e8dc47e	0.27688974
144	0x3cfd97f9	0.030956255
145	0x3e23af3c	0.15984815
146	0x3e14f4ca	0.14546505
147	0x3d213754	0.039359406
148	0xbebe137f	-0.3712425
149	0x3d4e3afc	0.05034922
150	0x3bb03c90	0.0053783134
151	0x3d6831ca	0.056688108
152	0x3db927ce	0.09040795
153	0x3db1f62d	0.086895324
154	0x3d4192d2	0.04725916
155	0x3cf055ae	0.02933773
156	0xbd67f719	-0.056632135
157	0xbef82736	-0.48467416
158	0x3e0fa5b6	0.14028057
159	0xbd6f4a1c	-0.058420286
160	0xbd11dc79	-0.03561065
161	0xbb6a1893	-0.0035720214
162	0x3ca2a7c2	0.019855384
163	0xbee1c4a7	-0.44095346
164	0x3e174dd2	0.1477578
165	0x3c7eb4f0	0.015546069
166	0x3c2219bd	0.009893832
167	0xbcdca9e9	-0.026936488
168	0x3bbe59da	0.005809051
169	0x3def5a61	0.1168716
170	0x3d456839	0.048195098
171	0xbe96f776	-0.29485673
172	0x3e0d95d4	0.13826686
173	0xbdfd28a7	-0.123612694
174	0xbd9dfc77	-0.077141695
175	0x3e35f72d	0.17770071
176	0xbe334751	-0.17507674
177	0x3d8a8dae	0.067653045
178	0xbdb0f44e	-0.086403474
179	0x3d40a6c5	0.047034044
180	0x3cff3bb1	0.031156393
181	0x3ec06e1d	0.3758401
182	0xbbf09dc6	-0.007343027
183	0xbddd60c2	-0.10809471
184	0xbdbcae6c	-0.09212956
185	0xbdb530e6	-0.08847217
186	0x3d88a582	0.06672193
187	0x392ece8c	0.00016670878
188	0x3a9a9d68	0.0011796178
189	0xbda04e00	-0.07827377
190	0xbe953173	-0.2913929
191	0x3cb340bf	0.02188146
192	0xbe8ab699	-0.27092436
193	0x3e7f1ccd	0.2491333
194	0x3cfdd204	0.030983932
195	0xbcbcd369	-0.023050027
196	0x3ce3b563	0.027796453
197	0xbe24b82a	-0.16085878
198	0xbe566300	-0.20936203
199	0xbe98e902	-0.2986527
200	0x3e13beab	0.14428203
201	0x3ddce630	0.10786092
202	0xbe85a892	-0.2610517
203	0xbbb3ba80	-0.005484879
204	0x3d2d5283	0.042315017
205	0xbd4e2785	-0.050330658
206	0x3dd7ad2c	0.10531077
207	0x3d3e6ab3	0.046488475
208	0x3f2c1984	0.67226434
209	0xbd0053b6	-0.031329833
210	0x3e5b6204	0.21424109
211	0x3f1a4093	0.6025478
212	0x3d16345c	0.036671028
213	0x3d389168	0.045060545
214	0x3e333cb9	0.17503633
215	0x3cd45cca	0.025923152
216	0xbef80be5	-0.48446575
217	0x3e8244f9	0.25443247
218	0x3d4bcd65	0.049756426
219	0x3e03406d	0.12817545
220	0xbd651119	-0.05592451
221	0x3d8d048a	0.068856314
222	0x3dbca224	0.09210613
223	0x3d41efba	0.04734776
224	0x3ca5febf	0.020263074
225	0xbedf1aa3	-0.4357501
226	0x3ee20fbe	0.44152635
227	0x3b8f5fa6	0.004375416
228	0x3e3b9f38	0.18322456
229	0x3db8b4f0	0.09018886
230	0x3c6ba3be	0.014382301
231	0x3b078ffb	0.0020685184
232	0x3c72e488	0.014824994
233	0x3dc4b40b	0.09604653
234	0x3d26aeab	0.04069392
235	0x3d06a6ed	0.032874037
236	0x3d62765f	0.05528867
237	0xbe571412	-0.2100375
238	0x3e06bd1e	0.1315808
239	0x3d399345	0.045306463
240	0xbca69a11	-0.020337136
241	0x3cdc76e0	0.026912153
242	0xbcb2e656	-0.021838348
243	0x3e7cecb3	0.24699669
244	0x3e24ce96	0.16094431
245	0x3d8cafd6	0.068694755
246	0xbeb0d3ad	-0.34536496
247	0x3e884ef9	0.2662275
248	0xbcda1c9d	-0.026624972
249	0xbcc5ae35	-0.02413092
250	0xbd7da307	-0.061923053
251	0x3e12fc6c	0.14354104
252	0xbca87884	-0.020565279
253	0xbe6ab957	-0.22922264
254	0x3dc5093c	0.09620902
255	0x3dfd0d6d	0.123560764

decoder.0.bias f4 [16]
0	0x3f8b8271	1.0899183
1	0x3f37163a	0.7151829
2	0x3ea37cbb	0.319311
3	0x3e6f9031	0.23394848
4	0x3f8c2f7f	1.0951995
5	0x401bda35	2.4351933
6	0x3ffe2c27	1.9857224
7	0x3f83047d	1.0235745
8	0x401da647	2.4632738
9	0x3fc9b997	1.5759763
10	0x3edee77b	0.4353598
11	0x3fc5d547	1.5455712
12	0x3fa07774	1.2536454
13	0x3fbbb988	1.4665995
14	0x3fcc22d8	1.5948133
15	0x3f7b6fb5	0.98217326

decoder.2.weight f4 [16]
0	0x3ff70482	1.9298251
1	0x40088338	2.133009
2	0x4014ba78	2.3238811
3	0x40008941	2.0083773
4	0x4034f796	2.8276114
5	0x403da63d	2.9632714
6	0x4080b0b0	4.0215683
7	0x3fdccf32	1.7250731
8	0x40028bda	2.0397859
9	0x4012f5ef	2.2962606
10	0x4020944e	2.5090518
11	0x403a048c	2.9065275
12	0x4048dc8a	3.1384606
13	0x40306e4e	2.7567325
14	0x3ff1d7d6	1.8893993
15	0x3fbdfa0d	1.4841934

decoder.2.bias f4 [16]
0	0x40234392	2.5509992
1	0x4034dfac	2.8261518
2	0x400ec349	2.2306693
3	0x400eede5	2.23327
4	0x401bf610	2.4368935
5	0xc014c414	-2.3244677
6	0x3f8031ec	1.0015235
7	0xc029eb6d	-2.6549942
8	0xbfdae726	-1.7101791
9	0xc0079df2	-2.1190152
10	0x400a3906	2.1597304
11	0xbfcfd248	-1.6236048
12	0x400e9da4	2.2283716
13	0xc02765cc	-2.6155882
14	0xc02c5fc3	-2.6933448
15	0xbfec0016	-1.8437526

decoder.2.running_mean f4 [16]
0	0x41aff18f	21.992949
1	0x411558b6	9.334158
2	0x40e66c2e	7.2007055
3	0x40cad0a4	6.337969
4	0x4145c643	12.360904
5	0x40b3dcc9	5.6207013
6	0x40f3f380	7.623474
7	0x4155b338	13.356255
8	0x40a83911	5.256966
9	0x40d95769	6.79192
10	0x40fb15aa	7.8463945
11	0x40da3b7c	6.8197613
12	0x413a539c	11.645412
13	0x4102b5f2	8.16942
14	0x41553b8b	13.327037
15	0x417aabe4	15.6669655

decoder.2.running_var f4 [16]
0	0x41e82fc0	29.023315
1	0x41f6aa39	30.833117
2	0x419f545f	19.916197
3	0x4195d70d	18.730005
4	0x41dc291c	27.520073
5	0x4034cad7	2.8248804
6	0x409bb09a	4.865308
7	0x432903e6	169.01523
8	0x41812cb2	16.146824
9	0x41bd7175	23.680399
10	0x41982e30	19.022552
11	0x413d700a	11.839853
12	0x41b7e334	22.985939
13	0x42179f95	37.90584
14	0x434fce54	207.80597
15	0x4371b163	241.69292

decoder.4.weight f4 [16, 1, 3, 3]
0	0xc023285e	-2.5493388
1	0xbfaef801	-1.3669435
2	0xbef3af2b	-0.4759458
3	0xc052317f	-3.284271
4	0xc0864fc9	-4.1972394
5	0xc014655b	-2.3186862
6	0x3c1c6beb	0.009547214
7	0xbf515a43	-0.81778353
8	0xbf224cbb	-0.6339833
9	0xc016eeeb	-2.3583324
10	0xc0c715b9	-6.2214017
11	0xbfeef0d0	-1.866724
12	0xc030fb63	-2.7653434
13	0xc097decd	-4.7459474
14	0xbf5669d9	-0.8375526
15	0xbf431df0	-0.76217556
16	0xbeff1048	-0.4981711
17	0xbf0461c6	-0.5171169
18	0xbecf8be0	-0.40536404
19	0x3e2e974f	0.17049907
20	0xbed3dc24	-0.4137889
21	0xc09315fb	-4.596433
22	0xc085097a	-4.157407
23	0xbf37715b	-0.7165734
24	0xc06f2ff5	-3.737302
25	0xbfe8c33a	-1.8184578
26	0xbe2d3b76	-0.16917214
27	0xbe6e2275	-0.23255332
28	0xc030c0b7	-2.7617624
29	0xc00119e5	-2.0172055
30	0xbf24ecb5	-0.64423686
31	0xc0970be9	-4.720204
32	0xc08bcbb8	-4.368618
33	0xbf0ac5e0	-0.54208183
34	0xc01b9c1a	-2.4314027
35	0xc008d75e	-2.138145
36	0xbfcc0fc1	-1.5942308
37	0xc022811d	-2.5391304
38	0xc015ed7f	-2.3426206
39	0xbf5d93cb	-0.8655364
40	0xc016ffb3	-2.3593566
41	0xc0264be4	-2.598382
42	0x3f81d216	1.0142238
43	0x3f395a11	0.72403055
44	0xbfa733a7	-1.3062638
45	0xbf03d00f	-0.5148935
46	0x3fd49b2a	1.6609852
47	0xbfec4eb8	-1.8461523
48	0x3fa65c77	1.2996968
49	0x406c9145	3.6963665
50	0xbfa312b1	-1.2740079
51	0xc00e96cf	-2.2279546
52	0xbf563729	-0.8367792
53	0xbd50b852	-0.05095703
54	0xbfa4931f	-1.2857398
55	0xbf88453a	-1.0646126
56	0xbe59f083	-0.21283154
57	0xbfc9a067	-1.5752076
58	0x3fb39adc	1.4031634
59	0x406f3330	3.7374992
60	0xbfda7127	-1.7065781
61	0xbfe8a7a7	-1.8176163
62	0xbf7ad811	-0.9798594
63	0x400d4ca6	2.2078032
64	0x4067e28e	3.6232028
65	0x4000301e	2.0029368
66	0x3fc516b7	1.5397557
67	0x401d4943	2.4575965
68	0x4011a6f0	2.275814
69	0x404a2a80	3.158844
70	0x4040aa8b	3.010409
71	0x3fcc9d4c	1.5985503
72	0xbfcaa407	-1.5831307
73	0x3e7d3d11	0.24730326
74	0x3f46dd98	0.77681875
75	0x4000fa38	2.0152721
76	0x406eb228	3.7296238
77	0x3f9caa71	1.2239515
78	0x3fc98775	1.5744463
79	0x3d729003	0.05921937
80	0xbfd6dd60	-1.6786308
81	0xbe811ef8	-0.2521894
82	0x3f31ef72	0.6950599
83	0x3fec9051	1.8481542
84	0x4002a1c3	2.0411232
85	0x406bd035	3.684583
86	0xbf5ba7a9	-0.85802704
87	0x40233689	2.5502036
88	0x3f4a760c	0.79086375
89	0xbffded63	-1.983807
90	0x3f76464d	0.9620102
91	0x3eeb873f	0.46001622
92	0xbf9ea8e2	-1.2395289
93	0x3e017474	0.1264208
94	0xc06210c3	-3.532273
95	0xc041a5ac	-3.0257368
96	0xbf5b40ad	-0.8564556
97	0xc0195bbf	-2.3962247
98	0xbe7cd6a2	-0.24691251
99	0x3ff4f623	1.9137615
100	0xc02107aa	-2.5160928
101	0xc0223a9a	-2.5348268
102	0x3f14fe30	0.5820036
103	0x3e672c95	0.225756
104	0x3fbb41c6	1.4629447
105	0x3ea2ea66	0.31819457
106	0x402f7c78	2.741972
107	0x3fdf4553	1.7443031
108	0x3f48dcf5	0.78462154
109	0x3f23e568	0.6402192
110	0x3eff7aa8	0.49898267
111	0xbe5a10fd	-0.21295543
112	0xbfc2bee2	-1.5214503
113	0xbfe1f6fe	-1.7653501
114	0xc00e384d	-2.2221863
115	0xc067e5c4	-3.6233988
116	0xbff5e4ca	-1.9210446
117	0xbf335fa4	-0.7006781
118	0x3deb8798	0.11500472
119	0x3fdbfab4	1.7185884
120	0xbfa6700a	-1.3002942
121	0x4035c9ca	2.8404412
122	0x400751ec	2.114375
123	0x3ea5fb37	0.32418224
124	0x40828247	4.078403
125	0x400060fc	2.0059195
126	0x3fa53d65	1.2909361
127	0x4036da15	2.8570607
128	0x3f3782b0	0.7168379
129	0x404221b6	3.0333076
130	0x4074ebd4	3.8268938
131	0x4002bbaf	2.0427053
132	0x40055256	2.0831504
133	0x3fb8422b	1.4395193
134	0x3fc03d38	1.5018682
135	0x3f855483	1.0416416
136	0x4017c350	2.371296
137	0x40087476	2.1321082
138	0x3fd986b6	1.6994236
139	0x40155d34	2.3338137
140	0x400cc6cd	2.1996338
141	0x4001e295	2.0294545
142	0x3fe2d05c	1.7719836
143	0x3fda94f8	1.7076712
